model.pth (torch_old, 28333 bytes, 6 tensors)

fc1.weight f4 [64, 37]
0.19260684 -0.3644953 -0.1324479 -0.45588857 -0.5262129 0.07032993 -0.004260151 -0.06158565
-0.16176556 -0.010941692 -0.14699641 -0.1631217 0.06973468 -0.16981815 -0.19357331 -0.21243924
-0.039022576 0.21521597 -0.2794402 -0.073566936 0.11801058 0.10378343 -0.15868591 0.0021076803
0.1617467 0.12223639 0.05404671 -0.26197323 -0.23273365 -0.17843305 -0.3170671 -0.024200164
-0.031668257 0.16211998 -0.23876686 -0.13492239 -0.018041784 0.073464 0.1979729 0.024592923
-0.11258596 0.09797907 0.119602084 -0.18172212 -0.18675569 -0.3185673 -0.15639544 0.15118217
-0.058976363 0.06070982 -0.064906284 0.034856405 0.07109718 0.12806666 -0.04659485 -0.06824347
0.08160921 -0.1524224 0.009703399 -0.16917057 -0.009288571 0.100671746 0.04986552 -0.001947552
0.06701157 -0.38416755 0.08290555 0.05393988 0.1799102 0.03071582 -0.032188054 0.1603091
0.050315488 -0.008707288 0.17648907 0.034236748 0.14740582 -0.21567276 0.07587098 -0.4282156
-0.051703922 0.37794057 -0.013237996 -0.6103417 0.012219426 -0.021602716 -0.03495844 0.034073178
0.03760216 -0.07162629 0.08153651 0.16067502 0.040225826 0.1941162 -0.04701207 -0.1162514
0.04616518 -0.08403381 -0.21823815 0.09636313 0.032583144 0.09370534 -0.19735438 -0.16011469
-0.4006805 -0.0143861845 0.06273696 -0.1685031 -0.17550969 -0.03697699 -0.013966808 0.19198789
-0.25352484 0.14435418 -0.0018735252 -0.72592354 0.05643658 0.2582264 0.013254 -0.3760213
-0.12853773 -0.020579377 0.20204207 -0.11055129 -0.3390429 -0.17947315 0.01070138 -0.2620819
0.011098399 -0.51653284 -0.82570815 0.0071109985 -0.07055465 0.06674794 -0.047147583 -0.12110359
-0.038102992 -0.18847758 0.3079252 -0.18626492 -0.65596896 0.12022708 0.17042716 0.18335709
-0.58992237 -0.17869611 0.07054945 -0.028206525 -0.13499746 -0.04594221 -0.1125676 -0.12247491
-0.046602372 0.3278776 -0.12562403 -0.06935113 -0.365584 -1.6437618 -0.07242778 0.09910493
-0.013920014 -0.032404978 -0.060086887 -0.021969663 -0.026135322 -0.009021976 0.006395851 0.02001351
0.049924266 -0.08352556 -0.007148852 0.10284373 0.07999554 0.1199818 0.031189602 0.052081585
0.059865322 -0.07044838 0.14011332 -0.0615484 0.02827041 0.1814822 0.31320348 -0.0010786448
0.0044120224 0.0033086794 -0.0087814275 0.037830766 0.03577528 0.046587925 0.11669069 0.18600737
0.037647493 0.038850762 -0.16027805 -0.012960421 0.010393404 -0.01875911 0.020815378 0.021288257
0.038539354 0.02698727 0.028070962 -0.026008818 -0.016323317 0.10128943 0.09962485 0.14864102
0.17104225 0.02242444 -0.028825993 -0.05358748 0.093979195 0.13553257 0.20257816 0.39626816
-0.5994074 -0.2683193 -0.27894244 -2.1092758 -0.0060916054 -0.0018190639 0.07563146 -0.030123949
-0.17770354 0.16396435 0.15325558 -0.1784483 -0.10188227 -0.049544238 0.2609421 0.33470908
0.09859635 0.09099332 0.04393902 -0.15763034 0.17925344 -0.04429925 -0.18166524 0.033234797
0.039298583 0.20807998 -0.098578125 0.07492686 0.045364745 -0.1656427 0.052922957 -0.23951429
-0.14484727 0.14262147 -0.09967319 0.19915654 -0.13054095 -0.04793954 0.056832388 0.09944961
00000000: ba3a 453e 219f babe 6ca0 07be 3a6a e9be
00000010: e3b5 06bf 2309 903d bd98 8bbb 3c41 7cbd
00000020: dfa5 25be c844 33bc 3a86 16be 6009 27be
00000030: 0ed1 8e3d cfe4 2dbe 1538 46be ac89 59be
00000040: 23d6 1fbd 9361 5c3e c912 8fbe 43aa 96bd
00000050: 88af f13d 688c d43d 8f7e 22be 0221 0a3b
00000060: eda0 253e 1357 fa3d 1560 5d3d 5b21 86be
00000070: bb51 6ebe 27b7 36be 9e56 a2be 6c3f c6bc
00000080: 93b6 01bd c802 263e 4d7f 74be 1829 0abe
00000090: 5dcc 93bc 4b74 963d 68b9 4a3e 1977 c93c
000000a0: 7893 e6bd 40a9 c83d f0f1 f43d 5d15 3abe
000000b0: e23c 3fbe 411b a3be 2026 20be 80cf 1a3e
000000c0: 3391 71bd dcaa 783d 96ed 84bd 97c5 0e3d
000000d0: 669b 913d e823 033e 3eda 3ebd 3bc3 8bbd
000000e0: bb22 a73d 9e14 1cbe 01fb 1e3c 0d3b 2dbe
000000f0: 172f 18bc fd2c ce3d ca3f 4c3d 0045 ffba
00000100: 5d3d 893d 9cb1 c4be 63ca a93d 10f0 5c3d
00000110: 613a 383e be9f fb3c 9fd7 03bd 1228 243e
00000120: 9d17 4e3d 03a9 0ebc 8db9 343e d53b 0c3d
00000130: 8df1 163e 52d9 5cbe 3f62 9b3d 133f dbbe
00000140: 7ec7 53bd 6d81 c13e 2ee4 58bc 5b3f 1cbf
00000150: fd33 483c 2ef8 b0bc 9530 0fbd 5190 0b3d
00000160: b904 1a3d ceb0 92bd 9dfc a63d fe87 243e
00000170: d6c3 243d 66c6 463e ba8f 40bd 3715 eebd
00000180: b317 3d3d eb19 acbd d279 5fbe 085a c53d
00000190: e775 053d 96e8 bf3d 4417 4abe 1bf5 23be
000001a0: ff25 cdbe 08b4 6bbc 3c7c 803d 148c 2cbe
000001b0: d0b8 33be 2f75 17bd 0ad5 64bc 7998 443e
000001c0: 02ce 81be 95d1 133e 1391 f5ba 20d6 39bf
000001d0: 0b2a 673d 4036 843e 4e27 593c dd85 c0be
000001e0: 659f 03be 1596 a8bc 1ee4 4e3e b768 e2bd
000001f0: 0897 adbe cfc7 37be d754 2f3c 992f 86be
00000200: 0fd6 353c 7f3b 04bf 9c61 53bf 6103 e93b
00000210: f57e 90bd 25b3 883d d31d 41bd 2905 f8bd
00000220: e211 1cbd 4400 41be 5fa8 9d3e 3bbc 3ebe
00000230: 95ed 27bf 9e39 f63d 7584 2e3e f6c1 3b3e
00000240: 2705 17bf 1dfc 36be 3b7c 903d 5f11 e7bc
00000250: c63c 0abe e62d 3cbd d889 e6bd 20d4 fabd
00000260: 21e2 3ebd 93df a73e 96a3 00be f707 8ebd
00000270: d32d bbbe c966 d2bf 0455 94bd 87f7 ca3d
00000280: c510 64bc 15bb 04bd ab1d 76bd b9f9 b3bc
00000290: be19 d6bc e9d0 13bc 4994 d13b 5ff3 a33c
000002a0: 637d 4c3d 730f abbd eb40 eabb bc9f d23d
000002b0: b4d4 a33d 05b9 f53d 5681 ff3c 8053 553d
000002c0: 5735 753d 3e47 90bd de79 0f3e 2d1a 7cbd
000002d0: 5997 e73c 78d6 393e 355c a03e 5061 8dba
000002e0: ba92 903b 6ed6 583b fadf 0fbc 6ff4 1a3d
000002f0: 1a89 123d fbd2 3e3d 87fb ee3d b778 3e3e
00000300: 4234 1a3d fa21 1f3d ee1f 24be f257 54bc
00000310: 1949 2a3c b4ac 99bc 0385 aa3c b664 ae3c
00000320: 71db 1d3d 6814 dd3c 13f5 e53c 7210 d5bc
00000330: 7ab8 85bc d570 cf3d 1d08 cc3d 5a35 183e
00000340: b325 2f3e 76b3 b73c 7d24 ecbc 8c7e 5bbd
00000350: 2a78 c03d 0dc9 0a3e a670 4f3e a9e3 ca3e
00000360: c372 19bf 2661 89be 8bd1 8ebe 60fe 06c0
00000370: 179c c7bb a86d eeba abe4 9a3d 80c6 f6bc
00000380: ebf7 35be 45e6 273e 08ef 1c3e 27bb 36be
00000390: a7a7 d0bd e6ee 4abd 349a 853e fd5e ab3e
000003a0: e2ec c93d b55a ba3d 67f9 333d d969 21be
000003b0: 378e 373e 2173 35bd 7406 3abe 3621 083d
000003c0: 8df7 203d eb12 553e 54e3 c9bd 4173 993d
000003d0: 62d0 393d 3d9e 29be bec5 583d 3c43 75be
000003e0: d852 14be 5d0b 123e 7521 ccbd b1ef 4b3e
000003f0: 87ac 05be 405c 44bd 14c9 683d 3dac cb3d

fc1.bias f4 [64]
0.09544454 -0.054774273 -0.13428263 0.023869814 0.21900506 0.025756504 -0.10331044 0.029104564
-0.011672692 -0.24780741 0.17824197 0.18787192 0.06880952 0.073870145 -0.044285502 -0.055051994
0.076639056 0.10028731 0.04271067 -0.108223 -0.15694615 0.05202529 0.0281227 -0.067297935
-0.12865992 0.059201166 0.00029202417 -0.15527394 0.13205984 0.18078527 -0.025306856 -0.2403996
0.15730624 -0.003634485 -0.19198683 0.019773096 -0.058457665 0.0077814916 0.023518398 -0.039410293
-0.21681237 0.07842782 -0.0495425 0.12686378 0.014185289 -0.1560256 0.054666948 -0.1718379
-0.16488962 0.0681979 -0.11114488 0.07754317 -0.09955172 -0.012186649 -0.19790448 -0.003961698
0.029634735 -0.031155573 -0.06863442 -0.12237827 0.108036384 0.105433084 0.08696287 0.044302844
00000000: 6d78 c33d fd5a 60bd 6381 09be a18a c33c
00000010: dd42 603e 4eff d23c 6d94 d3bd b26c ee3c
00000020: d23e 3fbc 3ac1 7dbe 1085 363e 7f61 403e
00000030: 01ec 8c3d 3b49 973d b764 35bd 337e 61bd
00000040: f0f4 9c3d 6f63 cd3d 62f1 2e3d 05a4 ddbd
00000050: 7eb6 20be 7818 553d 9461 e63c 80d3 89bd
00000060: 6dbf 03be ec7c 723d d21a 9939 2200 1fbe
00000070: b23a 073e c61f 393e 5350 cfbc 502b 76be
00000080: e314 213e 8a30 6ebb 3298 44be 30fb a13c
00000090: 4e71 6fbd e2fb fe3b a8a9 c03c b06c 21bd
000000a0: 1004 5ebe c49e a03d 14ed 4abd 94e8 013e
000000b0: 6a69 683c 2dc5 1fbe 73ea 5f3d 46f6 2fbe
000000c0: d3d8 28be 57ab 8b3d ed9f e3bd f4ce 9e3d
000000d0: c6e1 cbbd 83aa 47bc 79a7 4abe 22d1 81bb
000000e0: 8bc4 f23c f939 ffbc 3490 8cbd 75a1 fabd
000000f0: 2e42 dd3d 4ded d73d 9719 b23d e676 353d

fc2.weight f4 [64, 64]
-0.097792625 -0.2621712 -0.44777116 0.43681416 0.094468914 -0.033867765 -0.37119177 0.12061425
0.010781384 -0.09696321 0.124328144 -0.6710693 -0.40583056 0.26067314 -0.3600696 0.26247802
-0.060483593 -0.42946365 0.06823129 -0.192721 -0.36838076 -0.30205512 -0.039755505 0.1563631
-0.60123044 0.19174136 -0.07292035 0.38497785 0.09967324 -0.12943798 -0.06175065 -0.0028018986
-0.41395038 0.29874223 0.12572986 0.039654907 -0.12403658 0.108882315 0.53704756 -0.13696894
-0.110093534 -0.69940865 -0.093113534 -0.47936603 -0.01599283 0.016392596 0.0062213778 -0.09803243
-0.48012754 -0.21739624 -0.25197425 -0.22752759 -0.25865552 -0.3691367 0.034460824 -0.108148605
-0.2483079 -0.25611052 -0.2767354 0.19774258 0.14367701 -0.023217693 -0.6892716 -0.5491099
-0.03224263 0.043149885 -0.1036098 0.09699502 0.2327555 0.028435055 -0.31776133 0.017668368
0.027463514 -0.13517652 -0.04878851 0.21685083 -0.07594884 0.06729576 -0.076261595 0.03535642
0.15035443 0.16341138 -0.110681415 0.009237716 -0.019281266 -0.045602255 0.105588906 -0.38537735
-0.016025992 0.11822955 -0.066867635 -0.08452391 -0.04049713 -0.021445455 -0.11771416 0.07680597
-0.139181 0.00829009 -0.04377261 0.052795526 -0.014381987 -0.3005007 0.027851943 -0.19642611
-0.08341492 0.17492865 0.118267 -0.4173353 -0.24605022 -0.089040704 -0.18166481 -0.07338939
-0.0757117 -0.21780574 -0.06353249 0.087443136 -0.092242196 -0.20965336 -0.061419994 -0.08531226
-0.05450727 -0.24791513 0.31851622 0.076477475 -0.117066965 0.18074666 -0.065676846 -0.12601073
-0.17710385 -0.07949727 -0.47758824 -0.20963393 0.14174072 0.23541903 0.0076324046 -0.098613575
0.03962022 -0.24544932 -0.0059557906 0.09601149 0.029195242 -0.0057678283 -0.050814025 -4.7341582e-05
-0.1827625 0.21648167 -0.12995324 -0.18758748 -0.123486094 0.047171522 -0.056749426 -0.045324016
0.06427964 -0.010216436 0.05257942 -0.09640861 -0.16147774 0.13988665 0.0721571 0.023872977
-0.027945383 0.15865396 -0.2619018 -0.09102719 0.04006749 -0.10554009 0.070624724 0.1762128
0.2163116 0.03529099 -0.052059885 -0.28331605 0.12913217 0.099024266 0.19735321 -0.06539188
0.013282559 -0.24276654 -0.016909026 0.008441813 -0.066989526 0.048468325 -0.18741767 -0.010105012
-0.07585573 -0.3481889 0.2622243 0.10622537 -0.023690075 0.2196848 0.044380914 0.02451863
-0.22662453 -0.3208089 0.0481705 0.041475374 -0.03024859 -0.28341183 -0.37862158 0.080466
0.030987583 -0.15990564 0.124557786 -0.018556084 -0.17043243 0.20212972 -0.36696756 0.07045512
-0.058034543 0.029456034 -0.026703762 -0.40744588 -0.030034645 -0.46565282 -0.11647397 -0.29685852
0.123504564 0.09034484 0.20111634 0.33246908 0.13395597 -0.14479247 0.2391486 -0.45371923
0.069404826 0.05914497 -0.020229654 -0.006539199 -0.08990506 -0.046242435 0.39315084 -0.051944405
0.28477764 0.048287928 -0.009672845 -0.35553816 -0.07624215 0.010154001 -0.037924215 0.046732258
-0.09949999 -0.37974867 -0.22001302 -0.10598192 -0.008780475 -0.41537926 -0.5765251 0.081593685
-0.088825084 0.09104742 -0.025861824 0.11072615 -0.14034392 -0.36958566 -0.10519393 -0.056356803
00000000: 8047 c8bd 4e3b 86be 4342 e5be 1ba6 df3e
00000010: eb78 c13d edb8 0abd d90c bebe 9b04 f73d
00000020: 67a4 303c a694 c6bd c19f fe3d 33cb 2bbf
00000030: 06c9 cfbe f376 853e 0b5b b8be 8563 863e
00000040: a5bd 77bd a9e2 dbbe d9bc 8b3d a758 45be
00000050: 679c bcbe f8a6 9abe abd6 22bd a61d 203e
00000060: 3dea 19bf d957 443e 4457 95bd d11b c53e
00000070: 7c21 cc3d 648b 04be 40ee 7cbd 0fa0 37bb
00000080: 4ef1 d3be bef4 983e 54bf 003e 2f6d 223d
00000090: e406 febd b1fd de3d f37b 093f 9641 0cbe
000000a0: b878 e1bd 720c 33bf 4fb2 bebd 776f f5be
000000b0: 6503 83bc c449 863c b3dc cb3b 3ac5 c8bd
000000c0: 47d3 f5be 1f9d 5ebe c502 81be fefc 68be
000000d0: 7f6e 84be 7cff bcbe cb26 0d3d 047d ddbd
000000e0: 6d44 7ebe eb20 83be 43b0 8dbe 087d 4a3e
000000f0: 1120 133e 0833 bebc 1b74 30bf 7792 0cbf
00000100: d910 04bd efbd 303d 6031 d4bd 53a5 c63d
00000110: 7557 6e3e a2f0 e83c 9db1 a2be 41bd 903c
00000120: 2afb e03c b76b 0abe 76d6 47bd 250e 5e3e
00000130: 118b 9bbd 5cd2 893d 0a2f 9cbd e5d1 103d
00000140: 83f6 193e 5055 273e f0ac e2bd ca59 173c
00000150: bff3 9dbc 6ec9 3abd ff3e d83d 2e50 c5be
00000160: f148 83bc 5622 f23d e6f1 88bd df1a adbd
00000170: 52e0 25bd 61ae afbc 1f14 f1bd 734c 9d3d
00000180: 7785 0ebe 28d3 073c e94a 33bd 1f40 583d
00000190: 6da2 6bbc 3adb 99be c229 e43c ed23 49be
000001a0: 71d5 aabd 7f20 333e f835 f23d f9ac d5be
000001b0: 97f4 7bbe f95a b6bd 5706 3abe 2d4d 96bd
000001c0: bc0e 9bbd 7808 5fbe 521d 82bd 6315 b33d
000001d0: 7ae9 bcbd 5faf 56be 8893 7bbd 32b8 aebd
000001e0: 0443 5fbd 77dd 7dbe 8f14 a33e 39a0 9c3d
000001f0: cec0 efbd a715 393e 9581 86bd f508 01be
00000200: b65a 35be 77cf a2bd 7286 f4be 47aa 56be
00000210: 7b24 113e b011 713e 4019 fa3b eaf5 c9bd
00000220: d048 223d 1157 7bbe cb28 c3bb aca1 c43d
00000230: dc2a ef3c 0d00 bdbb 5e22 50bd a390 46b8
00000240: 1826 3bbe 5fad 5d3e 7612 05be ef16 40be
00000250: 47e6 fcbd ed36 413d 1672 68bd ada5 39bd
00000260: 0ba5 833d d762 27bc 855d 573d e171 c5bd
00000270: 6c5a 25be 723e 0f3e 1ac7 933d 4391 c33c
00000280: b7ed e4bc 2f76 223e fe17 86be 776c babd
00000290: cf1d 243d 6725 d8bd b2a3 903d 2171 343e
000002a0: ca80 5d3e 498d 103d bf3c 55bd cd0e 91be
000002b0: 393b 043e 3ccd ca3d f616 4a3e 2eec 85bd
000002c0: 179f 593c cb97 78be cc84 8abc 884f 0a3c
000002d0: ce31 89bd b986 463d 6bea 3fbe 7e8f 25bc
000002e0: 405a 9bbd d145 b2be 4342 863e b08c d93d
000002f0: b011 c2bc 0df5 603e c3c8 353d 4bdb c83c
00000300: 4310 68be 1041 a4be 6e4e 453d 15e2 293d
00000310: e4cb f7bc 5b1b 91be b0da c1be 5ccb a43d
00000320: acd9 fd3c 4ebe 23be 2718 ff3d ee02 98bc
00000330: d785 2ebe 18fb 4e3e 2ce3 bbbe c64a 903d
00000340: a1b5 6dbd c84d f13c d9c1 dabc bf9c d0be
00000350: 370b f6bc 0c6a eebe e889 eebd d7fd 97be
00000360: f6ef fc3d b706 b93d 71f1 4d3e 6339 aa3e
00000370: c12b 093e 7a44 14be 5fe3 743e e34d e8be
00000380: 1e24 8e3d ff41 723d a9b8 a5bc c746 d6bb
00000390: 2520 b8bd b568 3dbd 114b c93e a8c3 54bd
000003a0: 60ce 913e 90c9 453d da7a 1ebc 1909 b6be
000003b0: d824 9cbd f85c 263c 6c56 1bbd 536a 3f3d
000003c0: a7c6 cbbd 6b6e c2be 184b 61be 0d0d d9bd
000003d0: fbdb 0fbc 97ac d4be 2697 13bf 971a a73d
000003e0: ede9 b5bd 1277 ba3d 2ddc d3bc 64c4 e23d
000003f0: 51b6 0fbe 553a bdbe ea6f d7bd 64d6 66bd

fc2.bias f4 [64]
0.014227183 -0.0010466346 0.11728159 0.062020022 0.28560832 -0.22038199 -0.1008485 -0.059096962
0.10902684 0.421811 -0.046866663 0.14634866 0.32033733 -0.13034478 -0.08566742 -0.00337025
0.25970683 -0.09730274 -0.08053164 0.07758913 0.12056508 0.41937292 -0.18550745 -0.04534656
-0.09737473 -0.22735193 0.04096725 0.006972397 -0.13784903 0.2552171 0.037117455 -0.063314416
0.09279476 0.25897187 0.21129836 -0.092491604 -0.009612339 -0.14843228 0.34285945 -0.0010925779
-0.09230794 0.4970542 0.17089786 -0.008442713 0.08283206 -0.17141016 0.301832 -0.13546036
0.10913787 -0.16442376 -0.15040849 0.2658195 -0.049909905 -0.1558274 0.26288113 -0.21999982
-0.2203612 -0.13597916 0.11929426 -0.042414308 -0.13505976 0.32934213 0.091565296 -0.0055085965
00000000: 2119 693c 3b2f 89ba 5531 f03d b508 7e3d
00000010: 413b 923e d1ab 61be a989 cebd a80f 72bd
00000020: 7749 df3d 9df7 d73e 42f7 3fbd 6cdc 153e
00000030: 4103 a43e 1a79 05be 6672 afbd 6adf 5cbb
00000040: 4bf8 843e a946 c7bd c6ed a4bd 0de7 9e3d
00000050: d3ea f63d 0cb8 d63e aaf5 3dbe 51bd 39bd
00000060: 676c c7bd f2ce 68be 46cd 273d b578 e43b
00000070: 4c28 0dbe d1ab 823e 7908 183d fdaa 81bd
00000080: 2e0b be3d f697 843e 995e 583e 3d6c bdbd
00000090: 127d 1dbc a2fe 17be 468b af3e d534 8fba
000000a0: f20b bdbd e37d fe3e d9ff 2e3e 4e53 0abc
000000b0: dba3 a93d 2586 2fbe b989 9a3e 1fb6 0abe
000000c0: ad83 df3d b45e 28be af04 1abe 7e19 883e
000000d0: 546e 4cbd 3891 1fbe 5b98 863e a247 61be
000000e0: 5ea6 61be 1f3e 0bbe 8d50 f43d a0ba 2dbd
000000f0: 1b4d 0abe 889f a83e 9686 bb3d 7581 b4bb

fc3.weight f4 [4, 64]
0.10948775 0.18098949 0.08111564 0.20003709 0.14795777 -0.20415528 0.40234193 -0.17889307
0.2504415 0.10634049 0.07514255 0.17573878 0.1052669 0.00433118 -0.030360589 -0.49062908
0.16250002 0.019578155 0.19535872 0.18161887 0.23330133 0.09518065 0.14523354 0.1682899
0.3886162 -0.26976177 -0.6196231 -0.05538572 0.013043934 0.38407382 -0.08480667 0.09845964
0.20756276 0.17239422 0.109832145 -0.012176971 0.14190029 -0.06970578 0.22027205 0.07522704
0.26369384 0.12963969 0.1241137 0.049686726 0.0133195035 -0.49415568 0.16343804 0.31999367
0.048897192 -0.105859004 0.10911893 0.4232735 0.5425248 -0.13101545 0.10687803 -0.14130008
-0.13203453 -0.1524231 0.060724344 0.18385568 -0.12582609 0.1912244 0.16199492 0.46608815
0.4651762 0.17033683 0.20090799 0.5690272 0.16719757 -0.18330374 0.3744162 -0.076218545
0.2184355 0.1477994 0.21593677 0.2052687 0.05901028 0.39514706 0.07410826 0.06442392
0.13272658 0.3712515 0.13241692 0.23555383 0.121712916 0.21553291 -0.18029489 0.37245864
0.41489553 -0.1681649 -0.094166264 -0.32634866 -0.5151321 0.2882569 0.13365474 0.19168565
0.14175314 0.027976215 0.14451268 -0.119042024 0.18707734 -0.17486411 0.19568583 0.08675455
0.3295685 0.15809171 0.057882965 0.038918197 -0.050415207 -0.16183177 0.15573043 0.38542274
0.34669608 0.0338094 -0.3778922 0.2301045 0.6253506 -0.0370877 0.13460673 -0.08817425
-0.18127757 -0.06030238 0.18694408 0.097057596 -0.13732201 0.047579147 -0.11046447 0.35252047
0.6923733 0.008413406 0.22895558 0.1817494 0.1710603 -0.013464575 0.4294333 -0.104304865
0.07329591 0.12889846 -0.20888345 0.31473064 0.17574339 -0.2288924 0.17471232 -0.027764231
0.3027824 -0.3058605 -0.07448098 -0.022677286 0.17831747 0.29930222 -0.14858921 0.12134006
0.532672 -0.36982447 -0.07211276 -0.5673405 -0.24723285 0.22984439 0.16896354 -0.06832729
0.13309611 0.054004613 0.1359867 0.021236481 0.02104801 -0.17891002 0.11613249 -0.6072153
0.47290245 0.16980168 0.27898034 0.070699856 0.1754451 -0.19172095 0.12550071 0.7483957
0.33283144 0.298491 -0.382022 0.21419209 0.33264425 -0.047495853 0.11435672 0.10685893
-0.36783436 -0.18293546 0.19212188 0.052189752 -0.22599478 0.16788729 -0.22765665 0.37558046
0.082392134 0.29570106 0.15211622 -0.21198118 0.07806703 -0.20994543 0.018502085 -0.059216537
0.28169408 0.19159834 0.3314235 0.0065657864 0.12633714 -0.035559673 0.17511961 -0.14477369
0.27656174 -0.22338602 0.45827517 0.058689006 0.09675373 0.21207625 -0.2592156 0.6933661
0.095173545 -0.196609 -0.33507377 -0.47765937 -0.14997788 0.13036339 0.12568872 0.3248952
0.1576782 0.10745285 -0.0051639583 0.013560478 0.12960444 -0.045913123 0.2622942 0.18625148
0.030771917 0.22673273 0.06516382 -0.094590954 0.07680697 -0.64863557 0.14120513 -0.07126075
0.79491305 -0.5131535 0.08322204 0.250894 0.6818055 0.13652441 0.15110515 0.100825116
-0.15458865 -0.069364 0.17160478 -0.123511046 -0.20301577 0.117775165 0.32223287 0.2367576
00000000: 1d3b e03d 4f55 393e f51f a63d 86d6 4c3e
00000010: 3e82 173e 150e 51be c3ff cd3e bf2f 37be
00000020: de39 803e 0bc9 d93d 56e4 993d def4 333e
00000030: 2c96 d73d 92ec 8d3b c5b6 f8bc bc33 fbbe
00000040: 6866 263e 5e62 a03c 1e0c 483e 4cfa 393e
00000050: 8be6 6e3e 13ee c23d 1ab8 143e 3054 2c3e
00000060: b4f8 c63e 371e 8abe 9f9f 1ebf 23dc 62bd
00000070: 39b6 553c 53a5 c43e 1faf adbd 35a5 c93d
00000080: 558b 543e 1c88 303e adef e03d eb81 47bc
00000090: 4f4e 113e e7c1 8ebd ff8e 613e a210 9a3d
000000a0: e102 873e 44c0 043e 532f fe3d 4f84 4b3d
000000b0: 0c3a 5a3c f901 fdbe 4d5c 273e 36d6 a33e
000000c0: 6c48 483d 9bcc d8bd bf79 df3d 4eb7 d83e
000000d0: e8e2 0a3f ea28 06be dee2 da3d f8b0 10be
000000e0: 0f34 07be cd14 1cbe 17ba 783d aa44 3c3e
000000f0: 8ed8 00be 54d0 433e ffe1 253e 1ba3 ee3e
00000100: 932b ee3e c76c 2e3e d3ba 4d3e c4ab 113f
00000110: d735 2b3e fab3 3bbe 7bb3 bf3e 7818 9cbd
00000120: 8ead 5f3e ba58 173e 871e 5d3e f531 523e
00000130: c3b4 713d b750 ca3e 12c6 973d b0f0 833d
00000140: 7ae9 073e ad14 be3e 4d98 073e 0635 713e
00000150: 9f44 f93d a9b4 5c3e 399f 38be e6b2 be3e
00000160: 306d d43e 6b33 2cbe 3eda c0bd 2c17 a7be
00000170: b3df 03bf 6996 933e cadc 083e 3e49 443e
00000180: bc27 113e 602e e53c 22fb 133e 4ecc f3bd
00000190: 3491 3f3e 940f 33be de61 483e 5fac b13d
000001a0: 34bd a83e cbe2 213e b016 6d3d b068 1f3d
000001b0: 2d80 4ebd 3ab7 25be cc77 1f3e 2156 c53e
000001c0: 2682 b13e ba7b 0a3d 167b c1be 84a0 6b3e
000001d0: fa16 203f 46e9 17bd 59d6 093e b494 b4bd
000001e0: d4a0 39be a1ff 76bd 456e 3f3e 22c6 c63d
000001f0: 249e 0cbe 5ae2 423d 323b e2bd 907d b43e
00000200: 603f 313f 62d8 093c 5573 6a3e 841c 3a3e
00000210: 6e2a 2f3e 859a 5cbc aede db3e ca9d d5bd
00000220: 2b1c 963d f5fd 033e 8be5 55be 6024 a13e
00000230: 13f6 333e c562 6abe c9e7 323e d071 e3bc
00000240: 4b06 9b3e bf99 9cbe 7c89 98bd b7c5 b9bc
00000250: db98 363e 243e 993e c527 18be 2381 f83d
00000260: 315d 083f a259 bdbe dbaf 93bd 3a3d 11bf
00000270: 9c2a 7dbe 545c 6b3e c704 2d3e 2eef 8bbd
00000280: 594a 083e f133 5d3d 1940 0b3e 21f8 ad3c
00000290: e06c ac3c 3034 37be dfd6 ed3d 7672 1bbf
000002a0: 4520 f23e 7ee0 2d3e 83d6 8e3e 16cb 903d
000002b0: e1a7 333e 7f52 44be 4283 003e dc96 3f3f
000002c0: e268 aa3e d0d3 983e 6398 c3be 2c55 5b3e
000002d0: 5950 aa3e 038b 42bd db33 ea3d dbd8 da3d
000002e0: c954 bcbe 6f53 3bbe 99bb 443e ecc4 553d
000002f0: 2d6b 67be a5ea 2b3e d31e 69be 154c c03e
00000300: 35bd a83d 2166 973e 5bc4 1b3e 9811 59be
00000310: 9be1 9f3d effb 56be af91 973c 0a8d 72bd
00000320: 353a 903e 5b32 443e 57b0 a93e cf25 d73b
00000330: 865e 013e 05a7 11bd 8e52 333e 8e3f 14be
00000340: 8099 8d3e 4ebf 64be 0ba3 ea3e e263 703d
00000350: d226 c63d 842a 593e e8b7 84be 7180 313f
00000360: 59ea c23d df53 49be ca8e abbe c58f f4be
00000370: cd93 19be fb7d 053e 8bb4 003e aa58 a63e
00000380: 6576 213e 3d10 dc3d 6c36 a9bb c42c 5e3c
00000390: 07b7 043e 660f 3cbd 6d4b 863e b5b8 3e3e
000003a0: 6315 fc3c a02c 683e 9c74 853d e7b8 c1bd
000003b0: f94c 9d3d fb0c 26bf 1498 103e 28f1 91bd
000003c0: 6c7f 4b3f 075e 03bf 5170 aa3d 2e75 803e
000003d0: ce8a 2e3f 0ecd 0b3e 4fbb 1a3e 667d ce3d
000003e0: 7d4c 1ebe b60e 8ebd 2ab9 2f3e 5cf3 fcbd
000003f0: 5ee3 4fbe 1b34 f13d b5fb a43e 9670 723e

fc3.bias f4 [4]
0.3003561 0.28315234 0.16186306 0.19855344
00000000: 46c8 993e 58f9 903e 6ebf 253e 9851 4b3e
